Assets/results/Shooter/Shooter/checkpoint.pt (torch, 452514 bytes, 36 tensors)

network_body._body_endoder.seq_layers.0.weight f4 [128, 8]
0.6104755 -0.33510768 -0.1613011 0.44930327 -0.0843424 0.17090364 -0.52166486 0.1366273
-0.005032192 0.23783879 0.53282696 -0.23440216 0.63070554 -0.6021122 0.30239195 0.22430326
0.38706654 -0.5289145 -0.006946664 -0.4209411 -0.09486319 0.33123922 0.082650825 0.3171409
-0.38062742 -0.41512892 -0.5426933 -0.35433996 -0.23808798 -0.23819515 0.2624451 0.11636097
0.04346886 -0.06315038 -0.44477963 -0.07820857 -0.43093812 0.5183744 0.13027091 -0.39536387
-0.020629857 0.40101373 0.15989251 0.42661974 -0.046316944 0.10879286 0.2554806 -0.25847924
0.008862421 0.5166483 0.15895171 0.05793867 -0.07143485 0.5009763 -0.22741987 -0.008451394
0.43219984 -0.38944927 0.18800613 -0.07790216 -0.53125596 -0.025695007 -0.33039564 -0.07588992
0.27779508 -0.18509854 -0.106882624 -0.5525858 0.08951865 0.112980545 -0.18880692 -0.22371967
-0.10276935 -0.33413604 0.05945747 0.8640566 0.7828104 -0.31741437 0.48063242 -0.047107007
0.18899144 0.078209475 0.34107402 -0.89930975 0.44691628 -0.21194161 -0.3224945 0.20059957
-0.32784536 0.07375434 -0.44711375 0.2739068 0.841924 0.40581122 -0.69555444 -0.04979675
0.002084088 0.442922 0.7392427 0.097921975 0.102496326 -0.19520205 -0.4909319 0.32648978
-0.29554072 -0.036556683 -0.35245267 0.17991611 0.08194621 -0.0844331 0.09438154 0.37146306
-0.3897415 0.5620316 -0.03184632 0.03336049 -0.24502988 0.2769187 -0.27405253 -0.46677715
-0.23885351 -0.21681902 -0.38586938 -0.42233443 0.37200978 -0.17882062 0.1968895 0.10988448
-0.40928903 -0.048063766 -0.12518595 -0.24010086 0.46181127 0.099856526 -0.33908442 -0.46301228
0.08154675 0.4456769 0.1268967 -0.24951428 0.1291434 0.015974421 -0.43142492 -0.106231354
-0.44330817 0.4101853 0.32865524 0.23240627 -1.0213418 0.1871997 0.14762749 -0.0012435463
-0.48390862 -0.38353226 -0.052491587 -0.20439982 -0.19514002 0.04012404 0.6658339 -0.1420633
-0.7547037 0.79823196 -0.19631062 -0.2832304 0.19119637 -0.4047226 -0.22987731 0.451504
-0.41989252 0.0206862 0.6462685 -0.48613814 0.01543862 0.45906478 0.13814345 -0.12531137
0.066590354 -0.14557731 0.31860232 0.27864847 0.733626 0.25297058 -0.16904338 -0.4635482
0.08674887 -0.111203335 0.19570404 0.18209855 0.07847754 0.51505524 0.05947911 -0.3836504
0.33563063 -0.76535213 0.18395662 -0.4605241 0.05472125 0.5156969 -0.22183093 0.26522934
0.62202 1.134826 0.38584176 0.22308515 -0.3145482 0.4658379 0.370521 -0.63270694
-0.2283805 -0.28272918 0.3201311 -0.4166247 0.058633678 -0.35136503 0.33896345 -0.21245511
-0.45175612 -0.47563884 0.1962801 0.2198619 -0.32663697 -0.18398832 0.43505478 -0.13033453
-0.94863456 -0.7809597 0.14654158 -0.31161126 -0.27677643 0.27144417 0.21495712 0.22943059
-0.0019246865 -0.28450394 -0.27029938 -0.59830546 0.08421936 -0.10405116 0.0731513 -0.12466061
-0.55765784 -0.044994812 -0.3346351 -0.12265792 0.2865687 -0.032044724 0.21262005 -0.2802377
-0.20263128 -0.053427905 0.1497013 -0.09112472 -0.82938117 -0.11414743 -0.5950819 0.34884644
00000000: 1f48 1c3f 3c93 abbe 1e2c 25be 140b e63e
00000010: b5bb acbd 5d01 2f3e d48b 05bf 07e8 0b3e
00000020: 16e5 a4bb 038c 733e 5967 083f 1f07 70be
00000030: eb75 213f 0624 1abf 1ed3 9a3e c1af 653e
00000040: 962d c63e f166 07bf d7a0 e3bb 9885 d7be
00000050: a247 c2bd 3098 a93e d644 a93d 4b60 a23e
00000060: 99e1 c2be c78b d4be f3ed 0abf 0c6c b5be
00000070: 56cd 73be 6ee9 73be 345f 863e a94e ee3d
00000080: 670c 323d fd54 81bd 28ba e3be d12b a0bd
00000090: eca3 dcbe 2fb4 043f bd65 053e 226d cabe
000000a0: f2ff a8bc ac51 cd3e ddba 233e e76d da3e
000000b0: d6b6 3dbd cace de3d 5ace 823e 6457 84be
000000c0: b033 113c 1043 043f 3dc4 223e 1951 6d3d
000000d0: 6f4c 92bd fc3f 003f c1e0 68be b777 0abc
000000e0: 4c49 dd3e e565 c7be ae84 403e 2b8b 9fbd
000000f0: 6400 08bf 567e d2bc 9e29 a9be 2d6c 9bbd
00000100: 283b 8e3e 798a 3dbe 47e5 dabd 4376 0dbf
00000110: 8e55 b73d 5862 e73d 9a56 41be c516 65be
00000120: bd78 d2bd e113 abbe ad89 733d d032 5d3f
00000130: 4366 483f 2384 a2be 7415 f63e 47f3 40bd
00000140: f986 413e 4a2c a03d 41a1 ae3e 2a39 66bf
00000150: 36d2 e43e 3907 59be 001e a5be f969 4d3e
00000160: 59db a7be 840c 973d 18ec e4be 833d 8c3e
00000170: 5588 573f 7dc6 cf3e db0f 32bf adf7 4bbd
00000180: 3295 083b acc6 e23e 023f 3d3f 518b c83d
00000190: 98e9 d13d 0ce3 47be 6d5b fbbe ab29 a73e
000001a0: 1d51 97be 76bc 15bd ad74 b4be ee3b 383e
000001b0: 6ad3 a73d 43eb acbd 1c4b c13d 6830 be3e
000001c0: 338c c7be 4ee1 0f3f 4971 02bd 02a5 083d
000001d0: 1de9 7abe 4ac8 8d3e 9d50 8cbe 6afd eebe
000001e0: 0496 74be ce05 5ebe ac90 c5be 383c d8be
000001f0: 1178 be3e c11c 37be 679d 493e 1d0b e13d
00000200: 558e d1be 83de 44bd bf30 00be 00dd 75be
00000210: 8772 ec3e 9481 cc3d 799c adbe f20f edbe
00000220: fc01 a73d c32f e43e 35f1 013e ac80 7fbe
00000230: 2b3e 043e cadc 823c bae3 dcbe d38f d9bd
00000240: 4af9 e2be cf03 d23e 8045 a83e e9fb 6d3e
00000250: 54bb 82bf 47b1 3f3e a92b 173e 7dfe a2ba
00000260: dfc2 f7be 575e c4be 6b01 57bd 304e 51be
00000270: c9d2 47be 1b59 243d 1774 2a3f 0b79 11be
00000280: 4334 41bf ee58 4c3f a705 49be 9303 91be
00000290: fbc8 433e cd37 cfbe f564 6bbe 882b e73e
000002a0: 27fc d6be 1b76 a93c da71 253f 19e7 f8be
000002b0: 44f2 7c3c 8a0a eb3e 7a75 0d3e a051 00be
000002c0: 8660 883d 3812 15be d81f a33e 03ab 8e3e
000002d0: eace 3b3f 5c85 813e b519 2dbe 3156 edbe
000002e0: 64a9 b13d 93be e3bd a466 483e 0b78 3a3e
000002f0: d5b8 a03d a9da 033f 5ea0 733d d36d c4be
00000300: c7d7 ab3e 1eee 43bf 205f 3c3e d1c9 ebbe
00000310: 6423 603d b604 043f a627 63be 24cc 873e
00000320: b43c 1f3f fa41 913f 0d8d c53e 6f70 643e
00000330: 760c a1be 4e82 ee3e eeb4 bd3e 15f9 21bf
00000340: 94dc 69be e1c1 90be 39e8 a33e d54f d5be
00000350: de29 703d 1ee6 b3be 9e8c ad3e d58d 59be
00000360: 944c e7be ef86 f3be a7fd 483e 7a23 613e
00000370: f63c a7be 6f67 3cbe 80bf de3e 6a76 05be
00000380: b7d9 72bf faec 47bf ff0e 163e 838b 9fbe
00000390: a4b5 8dbe bbfa 8a3e b81d 5c3e daef 6a3e
000003a0: c345 fcba 80aa 91be ae64 8abe 8c2a 19bf
000003b0: 337b ac3d c618 d5bd 59d0 953d 104e ffbd
000003c0: aac2 0ebf 7b4c 38bd 4b55 abbe 1334 fbbd
000003d0: 22b9 923e 5441 03bd 12b9 593e 517b 8fbe
000003e0: 937e 4fbe 38d7 5abd 4c4b 193e 999f babd
000003f0: 5352 54bf 21c6 e9bd 4a57 18bf 009c b23e

network_body._body_endoder.seq_layers.0.bias f4 [128]
-0.009521872 -0.0059783263 0.012041469 0.013706214 0.0088873645 -0.018293217 -0.004988309 0.0049713636
0.008763938 -0.037001 0.027101904 0.014140764 -0.033943716 -0.01760076 0.056926906 -0.013909631
-0.0138772065 -0.020359319 -0.005279615 0.0042978968 0.002587505 -0.01898087 0.034175277 0.024601473
-0.021998571 -0.022084266 0.032890197 -0.024756495 -0.020581333 0.020064645 0.009607878 -0.046511333
0.01403904 0.0073967213 0.021542503 0.021970453 -0.007136414 0.0019640008 0.0016640314 0.039049987
-0.0058008013 -0.020197624 0.021041166 0.017538097 0.008022409 -0.012350467 0.0061897403 -0.033096224
-0.0057188454 -0.0278574 0.009636837 -0.0025623853 0.028254976 -0.0028315214 0.0011325969 0.004483547
-0.022419615 0.04691321 -0.021418238 0.00096647796 -0.0028067566 -0.018405873 0.019569894 -0.028365081
-0.00720574 0.043187514 0.031896964 0.011965354 0.026333429 0.011233876 -0.004743674 0.032560896
-0.0030675558 0.0053907013 0.022719357 0.020966467 -0.0069850553 0.03702017 -0.0048394958 -0.059979696
-0.013805157 0.0123875905 0.012382422 -0.02131649 0.04728797 -0.011087083 0.029387819 -0.0075577307
0.015594199 -0.011747545 0.0043605017 0.023787865 0.00039931363 -0.00080273295 0.02106379 -0.013491905
0.029917346 -0.03698289 -0.004214879 0.011400249 -0.039225034 0.021916451 -0.021864325 -0.046091296
0.0057691894 0.0017933346 0.0134532 -0.027714357 -0.0051643224 -0.005599488 -0.00798547 -0.008410351
0.0345728 -0.0117957555 -0.022149306 -0.0036528087 -0.025671331 0.056971442 0.040430073 -0.070702724
-0.06608752 -0.0014594443 0.0051359995 -0.012573977 0.002189587 0.010802409 0.011525349 -0.01955745
00000000: a001 1cbc d6e5 c3bb 9549 453c 0790 603c
00000010: 4f9c 113c a8db 95bc f874 a3bb d2e6 a23b
00000020: 9f96 0f3c 5c8e 17bd d004 de3c aaae 673c
00000030: 9108 0bbd 782f 90bc 302c 693d 39e5 63bc
00000040: 395d 63bc 96c8 a6bc 9f00 adbb 5fd5 8c3b
00000050: 2193 293b c57d 9bbc 60fb 0b3d 0789 c93c
00000060: 5936 b4bc 10ea b4bc dfb7 063d 22ce cabc
00000070: 2f9a a8bc 9c5e a43c 5c6a 1d3c ab82 3ebd
00000080: 0004 663c 3260 f23b e779 b03c 61fb b33c
00000090: 94d8 e9bb 77b6 003b a11b da3a e1f2 1f3d
000000a0: a614 bebb 7d75 a5bc 865e ac3c 0eac 8f3c
000000b0: 6c70 033c 9d59 4abc 4ed3 ca3b e88f 07bd
000000c0: 2765 bbbb 3435 e4bc d3e3 1d3c b1ed 27bb
000000d0: fb76 e73c 0c91 39bb a573 943a b8ea 923b
000000e0: 57a9 b7bc 1128 403d 4d75 afbc 3d5b 7d3a
000000f0: 90f1 37bb eac7 96bc 0b51 a03c e35d e8bc
00000100: 211e ecbb 64e5 303d 64a6 023d 550a 443c
00000110: 34b9 d73c 4b0e 383c d270 9bbb 935e 053d
00000120: 0c09 49bb 7ba4 b03b f21d ba3c dec1 ab3c
00000130: e4e2 e4bb 76a2 173d a294 9ebb 45ad 75bd
00000140: 062f 62bc 52f5 4a3c a4df 4a3c eb9f aebc
00000150: 08b1 413d 99a6 35bc b9be f03c d7a6 f7bb
00000160: d07e 7f3c c678 40bc 8ae2 8e3b c5de c23c
00000170: f85a d139 7f6e 52ba f88d ac3c 270d 5dbc
00000180: 3915 f53c 5f7b 17bd f81c 8abb 1cc8 3a3c
00000190: 6eaa 20bd 218a b33c d01c b3bc 3aca 3cbd
000001a0: 780b bd3b 530e eb3a d06a 5c3c 3809 e3bc
000001b0: 7a39 a9bb e97b b7bb 7dd5 02bc 92cb 09bc
000001c0: 359c 0d3d fc42 41bc 7672 b5bc f663 6fbb
000001d0: af4c d2bc e35a 693d 019a 253d 97cc 90bd
000001e0: e558 87bd d34a bfba e34b a83b 1503 4ebc
000001f0: 2d7f 0f3b 96fc 303c d1d4 3c3c f236 a0bc

network_body._body_endoder.seq_layers.2.weight f4 [128, 128]
-0.17723966 0.115173504 -0.124103904 -0.04000466 0.003901387 0.09215491 0.068960354 -0.08660923
-0.15668897 0.07244527 0.035989996 -0.11158089 -0.07964455 -0.09489863 0.016710937 0.042416163
-0.09992764 0.05092815 0.017504234 0.057245243 0.08261946 -0.017513003 -0.19045173 0.051202375
-0.075782105 -0.07131104 -0.01255663 0.05090991 -0.041365422 0.121354446 0.13025118 0.08347102
-0.101919554 0.027093044 0.16781779 0.10006491 0.078746125 0.079726934 0.029705832 -0.044873044
-0.12472821 -0.087566964 -0.0386261 -0.16310269 0.06528621 0.0035210473 -0.090826884 -0.071512185
-0.11290836 -0.04598742 -0.16164249 -0.06884693 -0.022351576 -0.15403892 0.10657525 0.10346895
-0.2386993 -0.098468654 -0.03989848 -0.14787038 -0.0400944 0.0140540665 -0.19952846 0.004458801
-0.04633521 -0.1323975 0.0013589816 0.06860144 -0.033421945 0.062215585 0.052222833 0.04197895
-0.019409174 -0.065341346 -0.08319125 -0.12979445 0.1068118 0.04912862 -0.060735464 -0.0024930795
-0.060490496 -0.12134562 0.058983855 -0.054742 0.10349785 0.07275163 -0.05891495 0.03678651
0.20502502 -0.009606904 -0.03496063 -0.030897073 0.09475184 -0.08287024 -0.06753889 -0.022493461
0.010781656 -0.1277033 0.10474673 0.01779855 -0.011632926 -0.04154888 0.017367985 -0.026602928
0.036749694 0.07236704 0.06954061 0.039062377 -0.07108092 -0.008559704 -0.20835143 0.045027662
-0.1513585 0.13107608 0.03236941 -0.045124125 0.043599572 -0.1113158 0.07295925 0.04442152
0.05844196 0.03666719 0.009540701 -0.024387548 -0.09322797 -0.04379325 0.06412686 -0.009963738
0.06667525 0.13017368 -0.07793159 -0.0009300447 0.12819593 -0.028749429 -0.11016024 0.07050133
0.14241904 -0.13701749 -0.0077313003 -0.02405216 -0.054579694 0.044287104 -0.02018147 -0.08442749
0.06753167 0.018405464 -0.1375178 0.062466346 -0.0785193 -0.02285852 0.017660357 -0.048693027
0.06557338 -0.15558174 0.03602887 0.15867418 0.03239306 0.0991334 0.0072877654 -0.12110966
0.17428331 -0.07856217 -0.14292663 -0.11798355 0.029400153 0.075624794 0.03291078 0.055668797
-0.0050474047 -0.022075133 -0.12878574 0.028379563 0.16264777 -0.029404985 -0.052837588 0.015087444
-0.040605806 -0.024015563 0.04613327 0.09204474 0.018620871 -0.028969957 0.11872328 0.03194487
-0.11184223 0.0038641654 -0.0010999006 -0.041856933 -0.04218979 -0.037440743 -0.11548978 -0.11969415
0.056415472 -0.037943456 -0.15602864 0.11367755 0.09010868 -0.14137603 0.19008182 -0.013318498
-0.13156345 0.08854649 -0.028767494 -0.13170743 0.075339235 0.026668292 0.09949086 0.04193254
-0.022052882 -0.008339247 0.06298589 -0.03296568 0.05439123 -0.24999608 0.08312154 0.11327776
0.13311239 -0.066530444 -0.09120982 0.05826854 0.074707285 0.011240038 0.05784987 -0.040705763
0.24182126 -0.04186044 0.04204865 0.05193774 0.13046817 -0.06527765 0.16840112 0.2683567
0.15460865 0.1887896 0.1725928 0.09324416 -0.0025776904 0.02476842 -0.038220443 0.12381071
0.0645816 0.0024320593 0.12477165 -0.022401989 -0.09665285 0.046852004 0.13493623 0.0975015
0.05463741 -0.2168073 0.025259865 -0.03371105 -0.17899475 0.12212556 0.08911628 0.10478791
00000000: 507e 35be 16e0 eb3d 302a febd eddb 23bd
00000010: 6aae 7f3b b7bb bc3d 163b 8d3d 2e60 b1bd
00000020: 1373 20be 305e 943d 3f6a 133d 8684 e4bd
00000030: af1c a3bd 375a c2bd 60e5 883c 92bc 2d3d
00000040: dda6 ccbd 099a 503d 0a65 8f3c fd79 6a3d
00000050: 6434 a93d 6e77 8fbc c705 43be 95b9 513d
00000060: a633 9bbd 860b 92bd 53ba 4dbc e986 503d
00000070: ca6e 29bd ae88 f83d 9160 053e dbf2 aa3d
00000080: 33bb d0bd 3bf2 dd3c 6dd8 2b3e d5ee cc3d
00000090: a645 a13d e047 a33d a559 f33c cccc 37bd
000000a0: 8171 ffbd 4f56 b3bd 6736 1ebd 6404 27be
000000b0: c7b4 853d 5fc1 663b 7203 babd fb74 92bd
000000c0: 803c e7bd 4e5d 3cbd 9c85 25be 9fff 8cbd
000000d0: a71a b7bc 61bc 1dbe 2044 da3d 87e7 d33d
000000e0: 976d 74be efa9 c9bd 976c 23bd 556b 17be
000000f0: 073a 24bd 0743 663c 3051 4cbe 221b 923b
00000100: fdc9 3dbd 3693 07be db1f b23a e97e 8c3d
00000110: 73e5 08bd c5d5 7e3d 9ce7 553d 1ff2 2b3d
00000120: fdff 9ebc afd1 85bd 2d60 aabd d6e8 04be
00000130: 25c0 da3d 183b 493d c0c5 78bd ef62 23bb
00000140: e2c4 77bd 0d84 f8bd 0e99 713d 2639 60bd
00000150: aef6 d33d cefe 943d cd50 71bd 74ad 163d
00000160: 14f2 513e 4766 1dbc e132 0fbd dc1b fdbc
00000170: 410d c23d dfb7 a9bd d451 8abd 3544 b8bc
00000180: 8ba5 303c a7c4 02be 7485 d63d 44ce 913c
00000190: 0798 3ebc 292f 2abd 4e47 8e3c 62ee d9bc
000001a0: d986 163d 2c35 943d 4f6b 8e3d dfff 1f3d
000001b0: e092 91bd 003e 0cbc 145a 55be ed6e 383d
000001c0: b9fd 1abe cf38 063e c995 043d 13d4 38bd
000001d0: 7795 323d 8af9 e3bd a96b 953d 57f3 353d
000001e0: d660 6f3d 5630 163d 9a50 1c3c 65c8 c7bc
000001f0: 4eee bebd 8d60 33bd f154 833d f23e 23bc
00000200: 098d 883d 404c 053e 999a 9fbd 3ece 73ba
00000210: cb45 033e ec83 ebbc b19b e1bd 0063 903d
00000220: 4cd6 113e 504e 0cbe d956 fdbb 0909 c5bc
00000230: f58e 5fbd 6566 353d 9c53 a5bc 52e8 acbd
00000240: 0b4e 8a3d 0ec7 963c 77d1 0cbe b6dc 7f3d
00000250: bace a0bd ca41 bbbc 74ac 903c 5772 47bd
00000260: 564b 863d d250 1fbe 0293 133d 7c7b 223e
00000270: 96ae 043d 7406 cb3d 35ce ee3b 5708 f8bd
00000280: 5377 323e 34e5 a0bd 5c5b 12be 5ca1 f1bd
00000290: 97d8 f03c 2ce1 9a3d 74cd 063d f704 643d
000002a0: b364 a5bb e9d6 b4bc 69e0 03be 427c e83c
000002b0: 238d 263e b9e2 f0bc 3a6c 58bd 5431 773c
000002c0: 4652 26bd 49bc c4bc 3df6 3c3d f481 bc3d
000002d0: cc8a 983c 6752 edbc 3125 f33d a0d8 023d
000002e0: 8a0d e5bd f03d 7d3b 8a2a 90ba 2d72 2bbd
000002f0: 34cf 2cbd 775b 19bd e885 ecbd 3522 f5bd
00000300: e913 673d 996a 1bbd f9c5 1fbe c6cf e83d
00000310: e68a b83d e1c4 10be cfa4 423e d435 5abc
00000320: 92b8 06be dd57 b53d cfa9 ebbc 50de 06be
00000330: 754b 9a3d 7677 da3c ddc1 cb3d 74c1 2b3d
00000340: 3fa8 b4bc 56a1 08bc bffe 803d 0507 07bd
00000350: 57c9 5e3d f9fe 7fbe a03b aa3d 2cfe e73d
00000360: 9d4e 083e 1d41 88bd 37cc babd feaa 6e3d
00000370: 2200 993d 2328 383c fcf3 6c3d 16bb 26bd
00000380: fe9f 773e da75 2bbd 353b 2c3d abbc 543d
00000390: 7399 053e 4ab0 85bd 5871 2c3e 0d66 893e
000003a0: bb51 1e3e 1052 413e 2bbc 303e cbf6 be3d
000003b0: 78ee 28bb 24e7 ca3c 0a8d 1cbd 7890 fd3d
000003c0: 5c43 843d 2f63 1f3b 4788 ff3d 6084 b7bc
000003d0: eef1 c5bd e3e7 3f3d b92c 0a3e deae c73d
000003e0: 7acb 5f3d bc02 5ebe c7ed ce3c 9914 0abd
000003f0: 664a 37be f71c fa3d 9982 b63d 0b9b d63d

network_body._body_endoder.seq_layers.2.bias f4 [128]
-0.008880888 0.030855568 0.01962339 0.0032791118 0.0054269903 -0.015585182 0.01609719 -0.0016501234
0.03179127 0.025557488 0.016016133 0.020236567 -0.01469647 -0.025447302 -0.005639063 0.0038832368
-0.031530295 -0.02542793 0.027226754 -0.0056778276 0.004540831 -0.03188821 -0.015145457 -0.0073467297
0.007982878 0.00046241653 -0.0042787245 -0.022320779 -0.023847736 -0.005307175 -0.00921818 0.019649085
-0.015605246 -0.02070307 -0.0043625757 -0.011473796 0.005946941 0.010494646 -0.008073178 -0.03039716
0.0089112455 -0.0062981816 -0.018654186 0.006305629 -0.015101875 -0.02796439 0.01643079 0.009893543
0.011814373 0.0051608644 0.010667757 0.007192548 0.017009897 -0.010772718 0.0019495664 0.010126198
-0.014035996 -0.03942152 -0.03439213 -0.003947131 -0.007950316 0.0023536114 -0.003782422 -0.00021912699
-0.010023933 -0.0052757515 -0.014389561 0.032543726 -0.028787341 -0.025631394 -0.011320637 -0.014273056
-0.008606348 0.037245482 -0.0152687505 -0.005071537 -0.013237303 0.013790266 0.001972526 0.005697677
-0.008377879 0.012574879 -0.022490237 0.0034726842 -0.019047933 0.022718215 0.0097725205 0.020434776
0.00024398255 -0.013853887 -0.013904386 0.02746827 -0.037425578 0.027657937 -0.010380287 -0.012373787
-0.0092616 0.0017359945 -0.018050501 0.009656321 -0.022892889 -0.0046204356 0.025639204 -0.033210926
0.007489573 -0.010322689 0.013923296 -0.018479584 0.037150353 -0.00051584095 0.02043565 0.02192518
0.037780005 0.0023530507 0.0031574199 0.0023632366 -0.02056394 0.037486 0.0035131108 0.01921029
-0.01212279 0.0099500315 0.008391131 -0.0120405 -0.014659477 0.009960008 0.00038750772 -0.026209716
00000000: 2581 11bc d1c4 fc3c 3bc1 a03c 5ee6 563b
00000010: e5d4 b13b fe58 7fbc 41de 833c f448 d8ba
00000020: 9037 023d f05d d13c 4434 833c 28c7 a53c
00000030: 77c9 70bc dc76 d0bc e4c7 b8bb e77d 7e3b
00000040: e925 01bd 3c4e d0bc a40a df3c 120d babb
00000050: 40cb 943b 369d 02bd a724 78bc d6bc f0bb
00000060: 9eca 023c 7f70 f239 8b34 8cbb 11da b6bc
00000070: 545c c3bc d0e7 adbb d907 17bc 1ef7 a03c
00000080: 25ad 7fbc 7c99 a9bc f0f3 8ebb 97fc 3bbc
00000090: 8fde c23b bcf1 2b3c 5d45 04bc 7703 f9bc
000000a0: 7900 123c fa60 cebb aad0 98bc 739f ce3b
000000b0: db6d 77bc 9415 e5bc dd99 863c 8718 223c
000000c0: 1291 413c 781c a93b d1c7 2e3c 77af eb3b
000000d0: 5758 8b3c 0e80 30bc 9888 ff3a 5ae8 253c
000000e0: 3cf7 65bc 7678 21bd c3de 0cbd ef56 81bb
000000f0: 0b42 02bc 0c3f 1a3b 83e2 77bb 74c5 65b9
00000100: 6c3b 24bc 36e0 acbb 31c2 6bbc 924c 053d
00000110: 6ed3 ebbc eef8 d1bc 317a 39bc 89d9 69bc
00000120: a401 0dbc b88e 183d c829 7abc 232f a6bb
00000130: 46e1 58bc 91f0 613c 7f45 013b 94b3 ba3b
00000140: 5f43 09bc de06 4e3c 723d b8bc f995 633b
00000150: 690a 9cbc 8d1b ba3c ec1c 203c d566 a73c
00000160: 91d5 7f39 6afb 62bc 39cf 63bc 2305 e13c
00000170: 904b 19bd e692 e23c 1412 2abc 6dbb 4abc
00000180: f7bd 17bc 4f8a e33a a5de 93bc 8c35 1e3c
00000190: de89 bbbc 0667 97bb 4f09 d23c 2e08 08bd
000001a0: 186b f53b 7f20 29bc 891e 643c 7f62 97bc
000001b0: f82a 183d 8039 07ba aa68 a73c 6f9c b33c
000001c0: 35bf 1a3d a435 1a3b b7ec 4e3b 88e0 1a3b
000001d0: b575 a8bc ec8a 193d 383c 663b e65e 9d3c
000001e0: ab9e 46bc 7505 233c f47a 093c 8445 45bc
000001f0: 4e2e 70bc 4d2f 233c 682a cb39 c2b5 d6bc

action_model._continuous_distribution.mu.weight f4 [1, 128]
-0.043501627 0.022077013 0.009723615 0.019372845 -0.0049917134 -0.028111624 -0.0287188 -0.004912512
0.024773402 0.022973958 0.03880992 -0.057651807 -0.009645399 0.011115617 0.0052676033 -0.03391496
-0.009067403 0.008634394 -0.0581335 0.029507896 0.0105845295 0.014118928 -0.015582044 0.019905256
-0.051410075 0.044836793 -0.012839668 -0.014639935 0.00037965825 0.008588943 0.005383428 0.0024754775
0.007893945 -0.007308031 -0.023352645 -0.012525936 0.03260301 -0.02646373 -0.018510768 0.006551497
-0.026362149 0.0070027662 0.0016958992 0.013458887 -0.015279365 0.005892421 0.041855097 0.020722348
-0.05868408 0.024796495 -0.04183589 -0.04257659 0.032094482 0.032404605 0.026337268 0.049390055
0.050201524 -0.004853804 0.008222584 -0.048499428 -0.02718835 0.027991902 -0.040425118 -0.0055594277
-0.00087632064 0.02120589 0.015849847 -0.049386274 -0.0019972129 -0.0007160714 -0.025685828 -0.021318683
-0.011058459 -0.00033256802 0.011986814 -0.042757567 -0.019770833 -0.046996098 0.026081152 0.012870742
0.008962888 0.024459004 -0.010770661 -0.021856526 -0.0062280097 -0.02578982 -0.05791538 -9.2277005e-05
0.015395316 0.013189857 0.025094675 0.047063462 0.0021049487 -0.015050257 -0.01992635 0.0058668754
0.018322276 -0.021665016 0.012740531 -0.017387798 -0.039254557 0.01957411 -0.032472134 0.013596883
0.027915843 -0.008615853 0.017168822 0.0084804585 -0.010116886 -0.048278976 0.032810256 0.048345428
-0.044670023 -0.050711464 0.048242506 0.0053698723 0.0026723256 0.031261623 -0.030139014 -0.00038384
-0.008061207 0.03619911 0.04583256 0.013939165 0.0042229434 -0.04075318 0.013190655 -0.014837174
00000000: c32e 32bd dada b43c cc4f 1f3c cdb3 9e3c
00000010: 8791 a3bb 594a e6bc b043 ebbc 23f9 a0bb
00000020: 97f1 ca3c e233 bc3c 27f7 1e3d 4d24 6cbd
00000030: bc07 1ebc 471e 363c dc9b ac3b 6aea 0abd
00000040: 728f 14bc 4677 0d3c 651d 6ebd 8bba f13c
00000050: bc6a 2d3c 1453 673c d44b 7fbc 5910 a33c
00000060: 5f93 52bd c9a6 373d 795d 52bc 57dc 6fbc
00000070: de0c c739 a3b8 0c3c 7867 b03b 9f3b 223b
00000080: 9b55 013c 3578 efbb 0c4e bfbc 9539 4dbc
00000090: bc8a 053d 77ca d8bc e5a3 97bc f1ad d63b
000000a0: 6ff5 d7bc 7677 e53b ef48 de3a aa82 5c3c
000000b0: 4d56 7abc 3615 c13b 4070 2b3d eac1 a93c
000000c0: b85e 70bd 0522 cb3c 1c5c 2bbd ca64 2ebd
000000d0: 8175 033d b1ba 043d 41c1 d73c 3a4d 4a3d
000000e0: 1da0 4d3d a90c 9fbb 04b8 063c 56a7 46bd
000000f0: 1aba debc 464f e53c cf94 25bd dc2b b6bb
00000100: e2b8 65ba fab7 ad3c 8ad7 813c 4349 4abd
00000110: ace3 02bb bdb6 3bba 166b d2bc 85a4 aebc
00000120: 8a2e 35bc 865c aeb9 5864 443c 8f22 2fbd
00000130: 71f6 a1bc fb7e 40bd 24a8 d53c cedf 523c
00000140: 14d9 123c 405e c83c 6d77 30bc 750c b3bc
00000150: 5514 ccbb 2c45 d3bc ad38 6dbd d784 c1b8
00000160: a33c 7c3c 451a 583c 5993 cd3c 9ec5 403d
00000170: 2ef3 093b 5a95 76bc 963c a3bc eb3e c03b
00000180: 9918 963c d57a b1bc a9bd 503c db70 8ebc
00000190: 63c9 20bd e259 a03c 8001 05bd 76c5 5e3c
000001a0: c4af e43c 8229 0dbc a1a5 8c3c 9ff1 0a3c
000001b0: 4cc1 25bc 2dc0 45bd 0c64 063d db05 463d
000001c0: eaf7 36bd d3b6 4fbd ef99 453d c1f5 af3b
000001d0: 2f22 2f3b 300c 003d 18e6 f6bc 223e c9b9
000001e0: 2713 04bc 8545 143d ecba 3b3d 1861 643c
000001f0: 9e60 8a3b ceec 26bd 9e1d 583c 9e17 73bc

action_model._discrete_distribution.branches.0.weight f4 [2, 128]
0.008654348 -0.046130694 -0.043281086 -0.027376924 0.030912807 0.017336704 -0.015123494 -0.03171744
0.031515792 -0.02485625 0.023483863 0.006779008 -0.010703857 0.0031854291 0.009204597 -0.024097865
0.01697277 0.00080300804 0.013457416 0.0137646925 0.039622158 -0.0066617555 0.008793775 -0.024899125
-0.018825946 0.008852069 0.020749245 -0.0059217233 0.00794814 -0.0097636385 0.012673937 -0.022349898
0.012039879 -0.00416668 -0.03554941 -0.010647403 -0.009959982 0.020177953 0.004393531 -0.0071602245
-0.021893298 -0.03408305 0.0009087901 -0.009989735 -0.0059422604 -0.00807634 -0.02203657 -0.025320876
-0.032300748 -0.03925656 -0.0029128683 -0.014287127 -0.016631404 0.04135396 -0.0010834876 0.013084361
0.010612791 0.007256212 0.017526321 -0.029975811 0.0044621206 0.004628377 -0.020609654 -0.024228895
-0.023289554 -0.0021214576 -0.009985998 0.012499803 0.0024452293 -0.015772494 -0.02134578 0.0042631384
-0.026745114 -0.041849386 0.0035115967 -0.0053578727 0.017646266 -0.011322825 0.024557017 -0.03671007
-0.017347082 -0.011446067 0.018740179 -0.006690989 0.01032074 -0.05081145 -0.0011048099 0.0636253
-0.028964253 0.05570022 -0.030810606 -0.062749386 0.0033232332 -0.038975645 -0.0042007444 0.0050558406
-0.0038445233 -0.006495112 -0.01549013 -0.043776438 0.0076967715 0.01613745 -0.012493274 0.008619137
0.009411929 -0.028805418 -0.017021937 0.002776678 -0.044793822 0.049057055 -0.019365786 0.034269504
0.045331895 -0.006232943 0.01693336 0.03733854 0.008572976 -0.04015241 -0.025413705 -0.02100644
-0.008323084 -0.0229452 0.019391008 -0.0019680965 0.009162644 -0.0042496393 -0.027243823 0.018116828
0.00021674359 0.053589717 0.022365382 0.02772763 -0.031260822 -0.023698745 0.0035918988 0.037016004
-0.034425646 0.033639155 -0.0249956 0.002038095 -0.00025416573 -0.015716827 -0.0075008553 0.023566708
0.007820921 0.0052142357 -0.010369858 -0.018658424 -0.052787866 -0.005214188 0.0010989574 0.011254845
0.03152867 -0.0047072344 -0.049298994 0.009063855 -0.003862202 0.0022443335 -0.036546268 0.040615387
-0.024745442 -0.0051386235 0.024314817 0.017230572 0.011535742 -0.02352242 0.018290551 -0.011636872
0.022303248 0.01924799 0.0015169205 0.02803984 -0.0036125097 0.009234439 0.0072514606 0.034938116
0.015200541 0.0238745 0.0075046667 0.014936333 0.022756662 -0.044584807 -0.0037985372 -0.01387583
-0.012995308 -0.008307213 -0.015128856 0.013318088 -0.030995563 -0.007263375 0.031295713 0.020977022
0.026103878 0.025133302 0.017605536 0.0043298765 -0.024831466 -0.017575072 0.0034655137 -0.011187616
0.028828055 0.042841572 0.011635967 0.004117021 -0.034968086 0.017423445 -0.030077234 0.02152364
0.018850032 0.021442087 -0.007908043 0.0050579384 -0.012963371 0.057720996 0.0016264871 -0.05713495
0.032735016 -0.08102932 0.014219661 0.06001372 -0.0040924796 0.047408246 0.01692819 0.011777302
0.030141996 -0.017431073 -0.0007640147 0.030333955 -0.0130429305 -0.016588544 0.014161726 -0.032960452
-0.012947377 0.031136388 0.022318402 0.007673445 0.052121267 -0.026775664 0.024293667 -0.03861123
-0.04805431 -0.0011279404 -0.0050517432 -0.023354275 0.010345159 0.04805528 0.04163026 0.03130172
0.010195009 0.029406566 -0.016548524 -0.0029896374 0.007843858 -0.027356513 0.027164005 -0.019389914
00000000: f7ca 0d3c 8af3 3cbd 8247 31bd 9245 e0bc
00000010: db3c fd3c b405 8e3c 88c8 77bc 25ea 01bd
00000020: b416 013d 569f cbbc 3b61 c03c 7122 de3b
00000030: 3b5f 2fbc a2c2 503b e1ce 163c e368 c5bc
00000040: 7b0a 8b3c f580 523a 7e7c 5c3c 4e85 613c
00000050: d84a 223d db4a dabb c413 103c 40f9 cbbc
00000060: df38 9abc 4508 113c 52fa a93c 040b c2bb
00000070: ea38 023c abf7 1fbc 58a6 4f3c 2217 b7bc
00000080: ea42 453c a588 88bb 429c 11bd 7272 2ebc
00000090: 312f 23bc 3c4c a53c 9cf7 8f3b 51a0 eabb
000000a0: 9359 b3bc ab9a 0bbd df3b 6e3a fcab 23bc
000000b0: 4bb7 c2bb a052 04bc 0986 b4bc ba6d cfbc
000000c0: ca4d 04bd 7dcb 20bd d2e5 3ebb 8e14 6abc
000000d0: 953e 88bc c562 293d d003 8eba ca5f 563c
000000e0: 46e1 2d3c 85c5 ed3b 5c93 8f3c d58f f5bc
000000f0: fb36 923b a4a9 973b 94d5 a8bc ad7b c6bc
00000100: bcc9 bebc 2708 0bbb 509c 23bc f9cb 4c3c
00000110: 2440 203b 5135 81bc 58dd aebc ccb1 8b3b
00000120: 9218 dbbc 436a 2bbd d122 663b 1891 afbb
00000130: e78e 903c 5f83 39bc cc2b c93c 4c5d 16bd
00000140: 781b 8ebc 4988 3bbc 0185 993c 1540 dbbb
00000150: 5218 293c ab1f 50bd 45cf 90ba fb4d 823d
00000160: 7146 edbc ea25 643d 8666 fcbc c082 80bd
00000170: 9aca 593b eda4 1fbd 66a6 89bb 77ab a53b
00000180: 66f4 7bbb f3d4 d4bb 50ca 7dbc ec4e 33bd
00000190: 3335 fc3b af32 843c 97b0 4cbc 4837 0d3c
000001a0: 7e34 1a3c 57f9 ebbc 9771 8bbc edf8 353b
000001b0: ba79 37bd 0df0 483d ffa4 9ebc 2e5e 0c3d
000001c0: f0ad 393d b73d ccbb d4b7 8a3c 4cf0 183d
000001d0: ab75 0c3c da76 24bd 6730 d0bc b315 acbc
000001e0: 8b5d 08bc 92f7 bbbc e4d9 9e3c 2efb 00bb
000001f0: ea1e 163c 8f40 8bbb 702e dfbc be69 943c
00000200: aa45 6339 e480 5b3d 9b37 b73c 0e25 e33c
00000210: 590b 00bd df23 c2bc 1066 6b3b 189e 173d
00000220: e801 0dbd 36c9 093d 93c3 ccbc 8f91 053b
00000230: 8c41 85b9 93c0 80bc bcc9 f5bb f80e c13c
00000240: 5223 003c 2edc aa3b 56e6 29bc 8dd9 98bc
00000250: 1738 58bd c7db aabb e40a 903a 3e66 383c
00000260: 3524 013d 253f 9abb beed 49bd 9080 143c
00000270: ff1c 7dbb ab15 133b 8ab1 15bd 525c 263d
00000280: f4b6 cabc e661 a8bb de2f c73c 2127 8d3c
00000290: 6900 3d3c 17b2 c0bc 11d6 953c 94a8 3ebc
000002a0: 4db5 b63c f6ad 9d3c 68d3 c63a ceb3 e53c
000002b0: dbbf 6cbb 0b4c 173c a99d ed3b 451b 0f3d
000002c0: b10b 793c 7594 c33c b5e9 f53b 85b7 743c
000002d0: 2e6c ba3c 8f9e 36bd e1f0 78bb 7357 63bc
000002e0: 46ea 54bc fa1a 08bc 05df 77bc 1c34 5a3c
000002f0: 68ea fdbc 9b01 eebb ef2f 003d 01d8 ab3c
00000300: cdd7 d53c 5be4 cd3c 7c39 903c a3e1 8d3b
00000310: 5c6b cbbc 99f9 8fbc ac1d 633b 434c 37bc
00000320: d028 ec3c a57a 2f3d c8a4 3e3c 13e8 863b
00000330: b23a 0fbd 9dbb 8e3c 8864 f6bc 5852 b03c
00000340: 626b 9a3c 51a7 af3c bd90 01bc 10bd a53b
00000350: 5264 54bc da6c 6c3d da2f d53a 5606 6abd
00000360: 2715 063d b3f2 a5bd 95f9 683c f2d0 753d
00000370: 351a 86bb 262f 423d fdac 8a3c 96f5 403c
00000380: 59ec f63c 9ccb 8ebc 2948 48ba ea7e f83c
00000390: 04b2 55bc b3e4 87bc 9606 683c 8a01 07bd
000003a0: 3c21 54bc bd11 ff3c 15d5 b63c 8671 fb3b
000003b0: 1c7d 553d a358 dbbc 8303 c73c cf26 1ebd
000003c0: 99d4 44bd 66d7 93ba 1889 a5bb 7751 bfbc
000003d0: be7e 293c 9dd5 443d 7e84 2a3d 3b36 003d
000003e0: f808 273c 0ae6 f03c c590 87bc cbed 43bb
000003f0: 8683 003c c41a e0bc 0c87 de3c 99d7 9ebc

action_model._discrete_distribution.branches.0.bias f4 [2]
-0.015784545 0.015784536
00000000: 974e 81bc 924e 813c

exp_avg f4 [128, 8]
-0.0020385927 -0.0013260755 0.0 -0.0028747765 -0.0005410971 0.0 -0.0013158033 -0.0026303716
0.0025241557 0.0016961668 0.0 0.004643139 0.0023272976 0.0 0.0026410164 0.004411413
-0.0021569605 -0.0014653719 0.0 -0.0007034441 -0.001206962 0.0 -0.0039677955 -0.0016010675
0.0009259735 -0.00012719295 0.0 -0.0021298744 -0.0028067967 0.0 -0.0021869934 -0.0015138447
-0.00039551107 -0.000753869 0.0 0.0006364793 -3.0202305e-05 0.0 0.0007822756 0.0011010651
0.0030797715 0.0023285637 0.0 0.004204482 0.00809903 0.0 0.004652667 0.0014662032
-0.002945119 -0.0019470226 0.0 0.001031303 0.0018783474 0.0 0.0002604421 0.0012104084
-0.0017625695 -0.0010379542 0.0 9.9286415e-05 0.0003584528 0.0 -0.00016299612 0.0001382723
-0.0011727811 -0.00094674435 0.0 5.1598312e-05 0.000611743 0.0 0.00030940288 0.00023440116
0.008501924 0.0011307712 0.0 -0.0013522512 -0.0003073901 0.0 -0.0025134804 0.0020011635
0.0008529997 -0.0003588525 0.0 0.0029059106 0.0023483667 0.0 -0.000101319616 0.00367567
0.006415187 0.001059848 0.0 0.0012503187 -0.004067354 0.0 -0.0032404168 0.005078003
-0.0001348913 -0.0003242221 0.0 -0.0006311087 -0.00017984783 0.0 -0.0015954545 -0.00031111023
-0.005845665 0.00053405535 0.0 0.0025144552 -0.0009882197 0.0 0.006627263 0.0020086977
-0.0020197607 -0.00091327785 0.0 0.0012999781 0.0022068473 0.0 0.0013557749 -0.00023200027
-0.002121966 -0.0012608847 0.0 -0.0034755757 -0.007299885 0.0 -0.003936815 -0.0013571816
0.00432493 1.6893864e-05 0.0 0.002616291 0.0027762356 0.0 -0.003311897 0.002503027
0.0005082224 -0.00022248032 0.0 0.0005124133 0.00026037055 0.0 -0.0003580534 0.00037522832
-0.024183154 -0.0026389866 0.0 -0.0021764506 -0.0021720633 0.0 0.014746114 -0.0041724234
-0.00700557 -0.0003781929 0.0 0.0014956916 -0.0013836694 0.0 0.0035783648 0.00037212722
-0.008063085 -0.001068773 0.0 -0.005307801 -0.014177691 0.0 0.0026395023 0.0007622208
0.00030229185 0.00018228835 0.0 -0.0015319359 -0.0029129097 0.0 -0.0005679082 0.00021977442
-0.007641772 0.0035178077 0.0 0.0070845536 0.024044132 0.0 0.023432493 -3.8289534e-05
0.0106077595 0.004008923 0.0 0.012551198 0.017226053 0.0 0.0058050305 0.0049221297
-0.00033930724 -0.00017932737 0.0 -2.0679556e-05 -0.00024650097 0.0 -9.296984e-05 -0.0001658762
0.001313742 -0.002981342 0.0 -0.0041439626 -0.012765956 0.0 -0.017556658 -0.0064842594
-0.0034673759 -0.0003606428 0.0 0.0009069892 0.0011741073 0.0 0.0024747357 -0.0005720138
-0.0017710088 -0.0002653092 0.0 -0.0025879494 -0.003662853 0.0 -0.0017795489 -0.0021039192
-0.0021749306 0.00016830632 0.0 -0.0028920958 -0.006577472 0.0 -0.000116598945 0.00012798671
-0.002223305 -0.0008642162 0.0 -1.8378685e-05 -0.0014223324 0.0 -0.0018343067 -0.0010031787
-0.0012736933 0.0011357759 0.0 0.003091634 0.0048216553 0.0 0.0055264006 0.0014275158
0.0007172381 0.00046644456 0.0 0.0007546353 7.554642e-05 0.0 0.00036423162 0.00058929645
00000000: e999 05bb b6cf adba 0000 0000 bf66 3cbb
00000010: 69d8 0dba 0000 0000 0877 acba 5062 2cbb
00000020: 4e6c 253b ea51 de3a 0000 0000 7925 983b
00000030: 9385 183b 0000 0000 e714 2d3b 9d8d 903b
00000040: cb5b 0dbb b911 c0ba 0000 0000 5667 38ba
00000050: ed32 9eba 0000 0000 4804 82bb e9da d1ba
00000060: 08bd 723a 195f 05b9 0000 0000 5d95 0bbb
00000070: 3cf2 37bb 0000 0000 a953 0fbb 336c c6ba
00000080: 995c cfb9 4b9f 45ba 0000 0000 67d9 263a
00000090: f55a fdb7 0000 0000 a011 4d3a 9d51 903a
000000a0: fed5 493b d19a 183b 0000 0000 c0c5 893b
000000b0: cbb1 043c 0000 0000 6675 983b 9e2d c03a
000000c0: e602 41bb 3d33 ffba 0000 0000 c92c 873a
000000d0: e132 f63a 0000 0000 f28b 8839 91a6 9e3a
000000e0: 0506 e7ba f70b 88ba 0000 0000 fd37 d038
000000f0: b8ee bb39 0000 0000 f0e9 2ab9 30fd 1039
00000100: 01b8 99ba f02e 78ba 0000 0000 446b 5838
00000110: 615d 203a 0000 0000 5a37 a239 95c9 7539
00000120: a74b 0b3c 6336 943a 0000 0000 053e b1ba
00000130: 3329 a1b9 0000 0000 34b9 24bb f425 033b
00000140: d79b 5f3a 5e24 bcb9 0000 0000 1771 3e3b
00000150: 0ee7 193b 0000 0000 8e7b d4b8 82e3 703b
00000160: 7d36 d23b 99ea 8a3a 0000 0000 bce1 a33a
00000170: 7047 85bb 0000 0000 2c5d 54bb 6065 a63b
00000180: 9c71 0db9 5bfc a9b9 0000 0000 fd70 25ba
00000190: 8995 3cb9 0000 0000 921e d1ba 821c a3b9
000001a0: fe8c bfbb d9ff 0b3a 0000 0000 8fc9 243b
000001b0: 2787 81ba 0000 0000 8329 d93b 5ba4 033b
000001c0: f65d 04bb 0a69 6fba 0000 0000 0764 aa3a
000001d0: c1a0 103b 0000 0000 42b4 b13a 1945 73b9
000001e0: af10 0bbb 4544 a5ba 0000 0000 7cc6 63bb
000001f0: e033 efbb 0000 0000 6600 81bb 75e3 b1ba
00000200: 24b8 8d3b 4cb7 8d37 0000 0000 1476 2b3b
00000210: 81f1 353b 0000 0000 690c 59bb d309 243b
00000220: 3a3a 053a 9b49 69b9 0000 0000 7953 063a
00000230: 5882 8839 0000 0000 1db9 bbb9 4bba c439
00000240: c01b c6bc d9f2 2cbb 0000 0000 c8a2 0ebb
00000250: 2d59 0ebb 0000 0000 af99 713c d3b8 88bb
00000260: fb8e e5bb 3148 c6b9 0000 0000 150b c43a
00000270: 3e5c b5ba 0000 0000 0083 6a3b 121a c339
00000280: 081b 04bc 1216 8cba 0000 0000 10ed adbb
00000290: 8c49 68bc 0000 0000 80fb 2c3b c6cf 473a
000002a0: ed7c 9e39 a824 3f39 0000 0000 3dcb c8ba
000002b0: 84e6 3ebb 0000 0000 addf 14ba 3f73 6639
000002c0: d467 fabb 058b 663b 0000 0000 8b25 e83b
000002d0: 33f8 c43c 0000 0000 80f5 bf3c 1399 20b8
000002e0: 2bcc 2d3c 495d 833b 0000 0000 8aa3 4d3c
000002f0: a71d 8d3c 0000 0000 2038 be3b d149 a13b
00000300: 0ce5 b1b9 d309 3cb9 0000 0000 0279 adb7
00000310: cd3c 81b9 0000 0000 cef8 c2b8 0eef 2db9
00000320: de31 ac3a 9e62 43bb 0000 0000 14ca 87bb
00000330: 4d28 51bc 0000 0000 fbd2 8fbc e979 d4bb
00000340: ea3c 63bb a814 bdb9 0000 0000 04c3 6d3a
00000350: 81e4 993a 0000 0000 2d2f 223b 32f3 15ba
00000360: 3221 e8ba 3319 8bb9 0000 0000 969a 29bb
00000370: 7a0c 70bb 0000 0000 c13f e9ba e8e1 09bb
00000380: 4889 0ebb 627b 3039 0000 0000 5189 3dbb
00000390: d687 d7bb 0000 0000 9586 f4b8 2c34 0639
000003a0: deb4 11bb 918c 62ba 0000 0000 ed2b 9ab7
000003b0: 8e6d baba 0000 0000 1f6d f0ba 177d 83ba
000003c0: 0ef2 a6ba 51de 943a 0000 0000 039d 4a3b
000003d0: fafe 9d3b 0000 0000 cf16 b53b 7b1b bb3a
000003e0: 0905 3c3a 218d f439 0000 0000 b8d2 453a
000003f0: ad6e 9e38 0000 0000 57f6 be39 047b 1a3a

exp_avg_sq f4 [128, 8]
0.00015648414 1.3602445e-05 0.0 0.0001141854 0.00011360685 0.0 0.00023025926 0.000121991696
0.00015792166 1.958868e-05 0.0 9.627522e-05 0.000167374 0.0 0.0003592021 9.894053e-05
0.00022478263 1.7513375e-05 0.0 0.0001458106 0.00012160599 0.0 0.00036730475 0.00017663997
0.00036071448 5.718856e-05 0.0 0.00028106236 0.00039352328 0.0 0.0011684851 0.0002983659
8.0096775e-05 9.51404e-06 0.0 3.532443e-05 2.1640613e-05 0.0 0.00017578469 3.4093027e-05
0.0010744716 0.0001382722 0.0 0.00067025714 0.0007667245 0.0 0.0023454372 0.0006974581
6.608389e-05 1.6236354e-05 0.0 2.8148537e-05 1.3646325e-05 0.0 2.7504195e-05 2.3772354e-05
7.871003e-05 5.8964347e-06 0.0 3.808476e-05 2.8416264e-06 0.0 2.2389004e-05 4.110968e-05
8.109045e-05 1.0469585e-05 0.0 3.811318e-05 3.499376e-05 0.0 0.00014415922 2.9237126e-05
0.0003533508 3.8382612e-05 0.0 0.0002077802 0.00017607817 0.0 0.0007959705 0.0002201899
0.00050705037 6.798142e-05 0.0 0.0003427649 0.00047818045 0.0 0.001040707 0.0003456484
0.0003004185 2.9506438e-05 0.0 0.00035085983 0.00032842648 0.0 0.00043953367 0.00020669262
4.3247925e-05 6.0911516e-06 0.0 3.663284e-05 2.6526835e-05 0.0 4.0757375e-05 4.248729e-05
0.000663358 6.593513e-05 0.0 0.0004612225 0.0005241866 0.0 0.0013718125 0.00039205255
5.315334e-05 1.3896007e-05 0.0 2.8458131e-05 9.8525825e-06 0.0 6.204677e-05 2.3354227e-05
0.00029033163 4.2432264e-05 0.0 0.00015962211 0.00026818566 0.0 0.00075787137 0.00016206656
0.00030216854 3.2834763e-05 0.0 0.00015574168 0.00023177803 0.0 0.00057368417 0.00015854217
0.00011498047 2.0733984e-05 0.0 9.34838e-05 7.775478e-05 0.0 0.00010980622 7.697312e-05
0.0035107862 0.0005033139 0.0 0.002338262 0.00032892067 0.0 0.008226784 0.002385058
0.00026032506 2.7562788e-05 0.0 0.00020183885 0.00011315474 0.0 0.00069870416 0.00015610972
0.002196736 0.0002887299 0.0 0.0016713266 0.002046072 0.0 0.0049770274 0.0012508257
6.480594e-05 9.406969e-06 0.0 4.3982596e-05 3.698542e-05 0.0 0.00014909734 4.1174262e-05
0.0036681192 0.00038421436 0.0 0.0027088993 0.0042816745 0.0 0.0082112225 0.0019185353
0.0062472816 0.00066488085 0.0 0.004246017 0.005053956 0.0 0.014505343 0.003621198
8.112057e-05 1.9671077e-06 0.0 3.9998497e-05 5.2313786e-05 0.0 0.00010580827 4.200599e-05
0.0016759039 0.00024248133 0.0 0.0011239083 0.0011808932 0.0 0.004483477 0.0012535444
0.0001204171 1.3417952e-05 0.0 6.753763e-05 8.1927654e-05 0.0 0.00033544513 5.177066e-05
0.00019972911 3.1630727e-05 0.0 0.000163755 9.3300994e-05 0.0 0.0007217377 0.00015986881
0.00021472052 2.7567507e-05 0.0 0.00017014203 0.00012045783 0.0 0.00067662215 0.00015917455
0.00016862516 2.339277e-05 0.0 8.774194e-05 0.00013476436 0.0 0.00049590017 8.4399384e-05
0.00015242903 3.290068e-05 0.0 0.00014115428 0.00013518355 0.0 0.0006254881 0.00010617768
5.780479e-05 6.1143937e-06 0.0 6.7578156e-05 2.393077e-06 0.0 1.1580661e-06 7.821164e-05
00000000: e415 2439 0e36 6437 0000 0000 d276 ef38
00000010: 3740 ee38 0000 0000 c071 7139 cbd5 ff38
00000020: c697 2539 5f52 a437 0000 0000 5de7 c938
00000030: 1e81 2f39 0000 0000 4a53 bc39 4b7e cf38
00000040: a1b3 6b39 b0e9 9237 0000 0000 bce4 1839
00000050: b806 ff38 0000 0000 cf92 c039 6e38 3939
00000060: 471e bd39 c0dd 6f38 0000 0000 8d5b 9339
00000070: cd51 ce39 0000 0000 db27 993a fe6d 9c39
00000080: a1f9 a738 7e9e 1f37 0000 0000 5129 1438
00000090: dd88 b537 0000 0000 d852 3839 1cff 0e38
000000a0: 49d5 8c3a 29fd 1039 0000 0000 32b4 2f3a
000000b0: 03fe 483a 0000 0000 e8b5 193b 9fd5 363a
000000c0: 8596 8a38 4e33 8837 0000 0000 8620 ec37
000000d0: 85f2 6437 0000 0000 cfb8 e637 be6a c737
000000e0: 2011 a538 fdd9 c536 0000 0000 33bd 1f38
000000f0: c5b2 3e36 0000 0000 05d0 bb37 2f6d 2c38
00000100: 1b0f aa38 86a6 2f37 0000 0000 b7db 1f38
00000110: 44c6 1238 0000 0000 7229 1739 4042 f537
00000120: f141 b939 04fd 2038 0000 0000 93df 5939
00000130: a0a1 3839 0000 0000 ada8 503a c7e2 6639
00000140: 93eb 043a 3f91 8e38 0000 0000 20b5 b339
00000150: 4bb4 fa39 0000 0000 5568 883a 2538 b539
00000160: 7d81 9d39 9884 f737 0000 0000 9cf3 b739
00000170: a830 ac39 0000 0000 3671 e639 a1bb 5839
00000180: 1b65 3538 9862 cc36 0000 0000 36a6 1938
00000190: f285 de37 0000 0000 e6f2 2a38 6134 3238
000001a0: 34e5 2d3a a746 8a38 0000 0000 3cd0 f139
000001b0: 9169 093a 0000 0000 64ce b33a 678c cd39
000001c0: f7f0 5e38 e522 6937 0000 0000 5fb9 ee37
000001d0: 854c 2537 0000 0000 1b1f 8238 d2e8 c337
000001e0: a737 9839 4cf9 3138 0000 0000 3c60 2739
000001f0: 459b 8c39 0000 0000 e3ab 463a 69f0 2939
00000200: 606c 9e39 0fb8 0938 0000 0000 974e 2339
00000210: 7109 7339 0000 0000 4b63 163a 573e 2639
00000220: ab21 f138 e4ed ad37 0000 0000 bc0c c438
00000230: 4810 a338 0000 0000 c447 e638 a16c a138
00000240: 3815 663b d3f0 033a 0000 0000 873d 193b
00000250: fc72 ac39 0000 0000 a2c9 063c a24e 1c3b
00000260: 3d7c 8839 a336 e737 0000 0000 b4a4 5339
00000270: 7d4d ed38 0000 0000 3e29 373a 62b1 2339
00000280: 1df7 0f3b ac60 9739 0000 0000 6a10 db3a
00000290: 6417 063b 0000 0000 5516 a33b bff2 a33a
000002a0: 6de8 8738 a0d2 1d37 0000 0000 f479 3838
000002b0: cb20 1b38 0000 0000 0357 1c39 87b2 2c38
000002c0: d464 703b 6170 c939 0000 0000 ca87 313b
000002d0: 4a4d 8c3b 0000 0000 5d88 063c 5d77 fb3a
000002e0: ffb5 cc3b 664b 2e3a 0000 0000 2c22 8b3b
000002f0: a89b a53b 0000 0000 d1a7 6d3c 9f51 6d3b
00000300: 461f aa38 a702 0436 0000 0000 0fc4 2738
00000310: 806b 5b38 0000 0000 62e5 dd38 972f 3038
00000320: 01aa db3a 9642 7e39 0000 0000 1b50 933a
00000330: 33c8 9a3a 0000 0000 22ea 923b f84d a43a
00000340: 7088 fc38 aa1d 6137 0000 0000 fda2 8d38
00000350: 93d0 ab38 0000 0000 afde af39 5324 5938
00000360: 606e 5139 3cab 0438 0000 0000 a6b5 2b39
00000370: 97aa c338 0000 0000 ff32 3d3a 75a2 2739
00000380: 9a26 6139 c540 e737 0000 0000 2768 3239
00000390: 4e9e fc38 0000 0000 585f 313a 18e8 2639
000003a0: f9d0 3039 973b c437 0000 0000 1802 b838
000003b0: 884f 0d39 0000 0000 4cff 013a 93ff b038
000003c0: 5bd5 1f39 d6fe 0938 0000 0000 d002 1439
000003d0: 0fc0 0d39 0000 0000 ccf7 233a b5ab de38
000003e0: 6c73 7238 3e2a cd36 0000 0000 bfb8 8d38
000003f0: c098 2036 0000 0000 d96e 9b35 8e05 a438

exp_avg f4 [128]
-0.00060740917 0.00054956524 -0.0005279273 -0.00019781287 -0.00020522081 0.0007135422 -0.00066278497 -0.0002766491
-0.00020945547 -0.000110686124 -0.0004581528 0.00021600613 -5.603234e-05 0.0003615625 -0.00013868626 -0.00040668753
-0.0003223294 -6.1060164e-05 0.0012935494 0.00042187647 0.0003702128 -5.857665e-05 0.0026548377 0.0011141965
-4.5870573e-05 -0.0005544381 0.00027081903 -0.00018229824 -1.2896521e-05 -0.0002775448 0.00061047496 0.00023031178
0.00062058814 0.0001802192 2.9273893e-05 0.00032934753 -0.00015774871 0.00033204202 -0.0004940071 0.0005750894
-0.0002788642 0.00068182516 -0.00073169044 0.00014429631 -0.00041673065 -2.1877224e-05 -0.00020187323 0.00034266448
-0.00015010398 0.0001854051 0.0014685922 -0.000516527 0.00066600717 -0.0005201625 6.53327e-05 -0.00017231148
0.00059596874 -0.00016854308 -0.00027294568 0.00013310158 -0.000627185 0.00012804555 0.0010149105 0.00017484996
0.00052500964 -0.0006247972 -0.0008281001 -0.00034377674 -0.00039178666 0.0021312681 0.0011678664 0.00023749293
-0.0009171789 -5.3155785e-05 0.00062587584 0.0003411057 0.00016096378 0.0009532753 -0.00061087427 -5.4927636e-06
-0.00029517326 0.0011633072 0.0018389274 0.00038666674 0.0013202738 -0.0005220283 0.0002536692 0.00048550754
-6.331897e-05 0.00015478375 -0.00027517712 0.0009160614 0.00055069017 0.0015655365 -0.00082533923 -0.00022432502
0.00013870538 -0.0003665383 0.00072233716 -0.0015282271 -0.0003111887 -0.00034175027 0.00054624816 4.2246545e-05
0.00069623237 0.00021003826 0.0003224638 9.7011995e-05 0.000417384 0.0001826939 -0.00027572742 0.0009920837
-2.817255e-05 0.0014838137 -0.00028977773 0.0010784906 -9.363183e-05 -0.0011384644 2.630099e-05 0.00017297601
-0.00019993646 -0.0009110346 -0.00055337854 0.000115199495 0.00038078672 -0.00029308093 -0.00013152766 0.0006563222
00000000: 8a3a 1fba b310 103a 9a64 0aba fd6b 4fb9
00000010: 8b30 57b9 020d 3b3a bfbe 2dba 370b 91b9
00000020: 46a1 5bb9 2920 e8b8 3a34 f0b9 b47f 6239
00000030: 4404 6bb8 1990 bd39 4f6c 11b9 ad38 d5b9
00000040: 52fe a8b9 6d0d 80b8 518c a93a 4d2f dd39
00000050: 1f19 c239 33b0 75b8 c9fc 2d3b 3b0a 923a
00000060: 2765 40b8 b657 11ba b7fc 8d39 5027 3fb9
00000070: 235e 58b7 6f83 91b9 4808 203a d97f 7139
00000080: f7ae 223a 39f9 3c39 3591 f537 47ac ac39
00000090: 5969 25b9 ed15 ae39 4180 01ba 99c1 163a
000000a0: 8534 92b9 83bc 323a eace 3fba 3f4e 1739
000000b0: a47c dab9 fb84 b7b7 efad 53b9 a6a7 b339
000000c0: 3b65 1db9 4d69 4239 c77d c03a 8a67 07ba
000000d0: fc96 2e3a 845b 08ba 3a03 8938 83ae 34b9
000000e0: c93a 1c3a f0ba 30b9 261a 8fb9 2f91 0b39
000000f0: ac69 24ba f743 0639 bf06 853a ee57 3739
00000100: cda0 093a 6ec9 23ba db14 59ba ef3c b4b9
00000110: b768 cdb9 bfac 0b3b 1813 993a 8607 7939
00000120: d66e 70ba 97f3 5eb8 d111 243a 6fd6 b239
00000130: 63c8 2839 39e5 793a 1423 20ba 7b4e b8b6
00000140: 7cc1 9ab9 1d7a 983a 2a08 f13a 88b9 ca39
00000150: 0a0d ad3a bad8 08ba e7fe 8439 b88b fe39
00000160: 1dca 84b8 724d 2239 a645 90b9 d723 703a
00000170: 315c 103a b032 cd3a 945b 58ba ca38 6bb9
00000180: 7171 1139 f02b c0b9 3a5b 3d3a cb4e c8ba
00000190: 0a27 a3b9 f22c b3b9 1832 0f3a e231 3138
000001a0: 5d83 363a b73d 5c39 5c10 a939 eb72 cb38
000001b0: 55d4 da39 8591 3f39 828f 90b9 ce08 823a
000001c0: 1754 ecb7 877c c23a 4fed 97b9 245c 8d3a
000001d0: 355c c4b8 8738 95ba f2a0 dc37 e560 3539
000001e0: 09a6 51b9 7fd2 6eba 9b10 11ba 4297 f138
000001f0: 54a4 c739 a8a8 99b9 b0ea 09b9 0a0d 2c3a

exp_avg_sq f4 [128]
2.9540297e-06 4.186256e-06 4.606941e-06 1.2022476e-05 2.257528e-06 2.4925623e-05 2.1870649e-06 1.6698245e-06
2.0795492e-06 8.933043e-06 1.183479e-05 9.264003e-06 1.0978467e-06 1.6863614e-05 1.981639e-06 7.986496e-06
6.655175e-06 2.8782954e-06 9.0474954e-05 7.51456e-06 5.748195e-05 1.6631388e-06 8.9238274e-05 0.00015241286
1.6565492e-06 4.6972043e-05 3.6129638e-06 7.474397e-06 7.210053e-06 5.37827e-06 6.9243792e-06 2.0250418e-06
6.3822667e-06 2.630594e-06 0.00015278136 4.185704e-05 1.4751944e-06 6.2273803e-06 3.1335817e-06 5.715438e-05
3.8958565e-06 2.6963338e-05 9.114488e-06 5.666981e-06 1.2532115e-05 1.0921795e-05 7.646816e-07 2.1470082e-06
1.4634568e-06 7.421675e-06 9.455136e-06 6.401357e-06 1.8101708e-05 2.1853964e-06 7.952322e-07 5.2036708e-06
1.1952753e-05 1.3476459e-05 1.5117917e-06 7.935491e-06 8.464374e-06 1.5555888e-05 2.3668093e-05 3.3490262e-06
6.033441e-06 3.9874876e-06 2.2300233e-05 5.0475237e-06 7.143588e-06 0.00014441765 1.8533996e-05 1.9539575e-06
7.580501e-05 2.114056e-06 8.4585945e-06 7.0402803e-06 5.6899453e-06 4.8592792e-05 1.0785653e-05 3.1397398e-05
3.0524855e-06 0.00013989044 6.3247106e-05 3.1400875e-06 4.8473685e-05 0.00014261082 6.180514e-05 2.8338645e-05
1.260707e-06 3.057011e-05 2.53679e-06 1.11585405e-05 3.0259282e-06 3.7609454e-05 1.0444951e-05 2.1543781e-05
1.379126e-05 5.7990073e-06 6.138726e-05 2.8151118e-05 2.754719e-06 1.419513e-06 4.5128763e-06 2.231685e-06
2.051635e-05 3.5794662e-06 2.6919336e-06 6.4978245e-05 1.3714233e-05 4.787178e-05 8.169498e-07 7.1858776e-06
1.4527061e-06 3.1727934e-05 1.29891e-06 6.5152904e-05 5.261031e-06 2.8834268e-06 8.5518286e-07 7.2850494e-06
2.041913e-06 3.237728e-05 1.1543334e-05 3.4681136e-06 8.200167e-06 2.5258826e-06 1.877521e-05 1.6445161e-05
00000000: d83d 4636 aa77 8c36 5295 9a36 24b4 4937
00000010: 0980 1736 5e17 d137 7dc5 1236 bc1e e035
00000020: 628e 0b36 21df 1537 098e 4637 976c 1b37
00000030: ba59 9335 5676 8d37 4cfc 0436 bdfd 0537
00000040: 854f df36 bd28 4136 5fbd bd38 9425 fc36
00000050: c618 7138 0439 df35 6f25 bb38 04d1 1f39
00000060: 9956 de35 d903 4538 3f76 7236 95cc fa36
00000070: e2ed f136 fd76 b436 f757 e836 f4e5 0736
00000080: 4127 d636 4389 3036 ef33 2039 a88f 2f38
00000090: 4bff c535 caf4 d036 864a 5236 0cb9 6f38
000000a0: 27b9 8236 542f e237 6eea 1837 ff26 be36
000000b0: 0641 5237 c13c 3737 8544 4d35 5215 1036
000000c0: fe6b c435 b407 f936 80a1 1e37 3dcb d636
000000d0: 1fd9 9737 d3a8 1236 f177 5535 319b ae36
000000e0: af88 4837 f318 6237 c4e8 ca35 ad22 0537
000000f0: 3602 0e37 047e 8237 d88a c637 d5bf 6036
00000100: dd72 ca36 42cc 8536 6311 bb37 e65d a936
00000110: f4b2 ef36 d16e 1739 7479 9b37 bc20 0336
00000120: 81f9 9e38 35df 0d36 63e9 0d37 8c3b ec36
00000130: 42ec be36 1dd0 4b38 07f4 3437 b3b0 0338
00000140: 4dd9 4c36 8eaf 1239 88a3 8438 4bba 5236
00000150: 3950 4b38 cd89 1539 629d 8138 c7b8 ed37
00000160: 9035 a935 6838 0038 b83d 2a36 9135 3b37
00000170: 0d11 4b36 d8be 1d38 b93c 2f37 ebb8 b437
00000180: 0361 6737 1895 c236 09bd 8038 1126 ec37
00000190: b6dd 3836 1886 be35 506d 9736 0ec4 1536
000001a0: 871a ac37 c336 7036 11a7 3436 ee44 8838
000001b0: 2f16 6637 efc9 4838 5d4c 5b35 381e f136
000001c0: 9afa c235 9c13 0538 3556 ae35 b3a2 8838
000001d0: ea87 b036 e580 4136 b88f 6535 1972 f436
000001e0: cc07 0936 d7cc 0738 3eaa 4137 bdbd 6836
000001f0: 7393 0937 5582 2936 757f 9d37 b7f3 8937
